project/banner/online_deepfm/deepfm_model.pth (torch, 181170 bytes, 62 tensors)

weight f4 [8, 8]
000000 96 e8 04 3d ee 4b 84 3d df d2 c9 3c fa d0 30 3d
       0.032448374 0.06459795 0.024636684 0.043168046
000010 c8 09 bf bd c1 5c 31 be 26 19 95 bc 1f c7 1f 3d
       -0.093280375 -0.17320539 -0.018200468 0.039008256
000020 d9 9e b8 bc 7a a3 da 3b fd 75 95 bc 23 0d 57 bb
       -0.022536682 0.00667232 -0.018244738 -0.0032814227
000030 ff 5b 1d 3d 56 6f 12 be 2f 40 53 3c 24 47 e3 3a
       0.038417812 -0.14300284 0.0128937205 0.0017339927
000040 9a a6 77 bd 61 d3 83 bc c7 e8 26 3c 42 19 71 3b
       -0.060461618 -0.016092004 0.010187334 0.0036788736
000050 a6 c0 9e 3d 4d ee b0 bd 37 e1 85 bb fa 56 c4 bb
       0.077515885 -0.08639202 -0.0040856856 -0.0059918137
000060 e4 2e 82 3d 78 27 ae bc d6 9e c1 3c 84 e5 02 3c
       0.063566 -0.021259055 0.02363531 0.007989291
000070 70 e5 16 3d 6f b5 18 3d d3 a3 c3 bc 98 ce 84 3c
       0.036839902 0.037282404 -0.023881828 0.016211793
000080 fd 27 ab bb 8a db 02 be b4 0e 84 bd 3c 62 49 bd
       -0.005223273 -0.1277906 -0.06448117 -0.04916595
000090 04 88 30 3c ad 7a db 3d bb 74 b8 3c 54 34 3c bd
       0.010774616 0.10716758 0.022516599 -0.04594834
0000a0 a4 6e 46 bb b1 15 24 3c f3 f1 cd 3c 3d 4f ba bb
       -0.003027835 0.010014937 0.025139784 -0.0056857155
0000b0 0e 18 ba 3c 8e 17 43 3e 28 af 86 3c ac 9a 10 bd
       0.022716548 0.19051954 0.016440943 -0.035303757
0000c0 e7 8a 1c 3c 3f 2a ae 3d 01 f7 38 3c 1c 92 67 3c
       0.009554601 0.085041516 0.011289359 0.014133956
0000d0 b1 52 b3 bc a9 65 86 3d 6b cb 7a bc 7c 02 0c 3d
       -0.021890016 0.06562359 -0.015307288 0.034182057
0000e0 5b 10 06 3b a5 84 31 39 23 bd e3 3a 70 eb ca 3a
       0.0020456526 0.0001692945 0.0017375093 0.0015481543
0000f0 c5 66 26 3c c9 54 96 b9 97 34 b4 ba 52 c2 11 3a
       0.010156338 -0.000286734 -0.0013748583 0.0005560267

weight f4 [4, 8]
000000 c6 0e 15 bc a9 f7 d2 3d 4c c3 e7 3d e2 c5 01 bc
       -0.009097761 0.10301144 0.11316547 -0.007920714
000010 1e 2d 1c bc 67 67 a0 3d b1 bb 91 3d 39 1d b7 bd
       -0.009532241 0.078322224 0.071158774 -0.08941121
000020 bb 1b dd bb 94 99 08 be d5 ad 03 be f6 a7 31 bb
       -0.0067476905 -0.13339835 -0.1285928 -0.002710817
000030 40 19 bd 3d 4d 0f cd bd fb e2 9e bd 74 95 e2 3d
       0.09233332 -0.10012684 -0.07758137 0.11063662
000040 6b 1f 31 bc 53 e8 18 3d 8f 8d c8 3c 57 8f f0 ba
       -0.010810713 0.037330937 0.024481563 -0.0018353265
000050 5a f5 ee 3c 4c 99 48 3c e1 c8 35 3c e7 08 e0 bc
       0.029169727 0.01224358 0.011095257 -0.027347995
000060 05 94 11 bc c5 b1 17 3b e8 ca 45 3b dd 2b 88 bb
       -0.008885388 0.002314673 0.0030180756 -0.0041556195
000070 a1 e0 18 3d 30 dd 50 bb d8 26 cc 3a f3 bf 05 bb
       0.037323598 -0.003187012 0.0015575541 -0.00204086

weight f4 [532, 8]
000000 1b e4 3f bc 97 31 a9 bd 70 2b e7 bc 0b e4 5d bd
       -0.011712099 -0.08261412 -0.028218955 -0.054172557
000010 19 fb 9a bd 33 25 b0 bc b8 3f 1e bc a9 43 70 bd
       -0.07567424 -0.021502113 -0.009658746 -0.058658276
000020 77 c3 50 bd d5 4d 53 bd 08 b5 35 bc 46 c0 9a 3b
       -0.05096766 -0.0515879 -0.0110905245 0.004722628
000030 18 dc 4a bd 65 8a d1 bc 94 d3 60 bd af 9b 84 3c
       -0.049526304 -0.025578687 -0.054889277 0.016187517
000040 2e a6 c3 bd 2f fe 43 bc 3f 5c 0f 3d a5 48 ba bc
       -0.09553181 -0.011962458 0.035000082 -0.022739718
000050 06 d2 5a bd 08 23 95 3d 9e f9 2b bd b4 ac 06 bd
       -0.05342295 0.07282072 -0.0419861 -0.032879546
000060 85 85 57 3d 7f d0 92 bd ac bc a2 bd 57 4c af bc
       0.05261757 -0.07168674 -0.079461426 -0.021398706
000070 0c cd 51 bd ed c6 b0 bd 03 c2 7d 3c 7e b2 0a 3d
       -0.05122094 -0.08631692 0.0154881505 0.03386163
000080 ce b5 ed 3c 60 c6 ad 3c 34 c7 a1 bc ac bb 03 3d
       0.029017355 0.021212757 -0.019748308 0.0321614
000090 89 8e d4 3d f5 89 45 bd 93 4c dd 3b d3 34 10 3d
       0.10378749 -0.04822727 0.006753513 0.035206627
0000a0 85 d5 a8 3c f6 16 14 ba 17 99 01 bd 5d e7 db bd
       0.020609627 -0.00056491734 -0.03164014 -0.107374884
0000b0 f2 4b a5 bc 1b 36 28 bd 8c 46 99 3d 24 91 44 3d
       -0.020177815 -0.041067224 0.07484159 0.04798998
0000c0 90 89 a2 bd 73 f6 f5 3a 6d 60 2c 3d 92 ac 12 3d
       -0.07936394 0.0018765464 0.042084146 0.035809107
0000d0 ca 58 3b 3b 85 e7 d1 3c af 8c 68 bd 47 53 3e bd
       0.0028586858 0.025623092 -0.05677479 -0.04646614
0000e0 8b 5d ea bc da a0 4b bd 26 cf 07 3c 92 24 b2 bb
       -0.028609058 -0.049713947 0.008289134 -0.0054364884
0000f0 0a b9 1e 3c d0 fa b3 bd c3 ae 3e bd 88 a6 d7 bb
       0.009687671 -0.08788073 -0.046553385 -0.0065811314
000100 68 4a 28 bc 22 78 7a 3c e9 4b b3 3c 83 f9 00 bc
       -0.010271646 0.015287431 0.021886783 -0.007871988
000110 90 12 bd 3d 91 b5 94 3c 17 96 92 3c 79 16 5c 3a
       0.09232056 0.018152984 0.017893834 0.00083956827
000120 af ad 02 bd 8b 80 05 3d 60 a5 9d 3c 9f 92 00 bc
       -0.03190392 0.03259329 0.019243896 -0.007847457
000130 17 70 1c 3d fe 88 06 3c 70 0c 4b 3b 9c 53 08 3c
       0.038192835 0.008211372 0.0030982755 0.008320715
000140 09 33 1a 3d 62 34 7c 3d 79 b2 9b bb 18 74 16 3c
       0.037646327 0.061573394 -0.0047515 0.009182952
000150 fd 63 df 3c 7a 36 ed 3c 75 b2 d2 3c 38 97 53 3c
       0.027269358 0.02895664 0.02571986 0.012914471
000160 e1 0b 09 bb 87 c1 71 ba ed e0 cf bc e9 43 7d 3c
       -0.0020911621 -0.0009222258 -0.025375808 0.015458086
000170 6d 35 28 bc 4f 1f e9 3b 05 88 00 3d 3f 9a 08 3d
       -0.010266644 0.007114328 0.03137972 0.033350226
000180 98 1e 02 bd 2d e9 dc 3c c1 50 f1 3c 25 c8 5e 3d
       -0.031767458 0.026966656 0.029457452 0.05439009
000190 de 06 15 3d db f0 64 3d 58 04 10 bc 24 2a ee 3b
       0.036383502 0.05589376 -0.008790098 0.007268207
0001a0 1f c9 cb af be 6a 6a 31 82 06 98 ab d6 ef 51 b8
       -3.706839e-10 3.4112158e-09 -1.0802056e-12 -5.0052848e-05
0001b0 65 f3 1f bb ba f7 fd b8 bc 62 9c ae 19 55 d0 36
       -0.002440655 -0.00012110123 -7.1115974e-11 6.2087897e-06
0001c0 3d c6 68 bd 34 58 2b 3d 20 6c 74 3d 73 10 ee bc
       -0.05682968 0.041832164 0.05967343 -0.029060578
0001d0 6e 5f 88 3d 49 5f b1 3d aa 21 76 3c d8 5d af 3b
       0.06658827 0.08660752 0.015022675 0.005351763
0001e0 fb b5 60 3c a4 9e 00 bd fd 3d 29 bd ef d9 15 3c
       0.0137152625 -0.03140129 -0.041318882 0.009146198
0001f0 3f 86 0e bd 20 5e 77 bd 4b 73 c8 3c bd fd 59 3c
       -0.034795996 -0.0603925 0.024469038 0.013305125
000200 ca bf d7 bc 3f 05 dc 3c 4a d2 e6 3c ff 2c 56 3d
       -0.02633657 0.02685797 0.028176446 0.052289005
000210 4f bf 2c 3d bc e9 48 3c 2f 10 04 bd 53 23 0a 3c
       0.042174634 0.012262758 -0.032241996 0.0084312735
000220 54 29 d5 bb d9 b1 0f 3e aa 02 a5 3d a3 3d ed bd
       -0.006505171 0.14032687 0.08057149 -0.11584022
000230 45 a9 2d bd a1 2a 5d 3d 3c eb 4b 3d 2a 17 b8 bb
       -0.042397756 0.053995732 0.049784884 -0.0056179957
000240 6b 24 b2 bc c7 20 1a bc ef c3 51 bc 36 2a a7 bd
       -0.021745881 -0.009407229 -0.012803062 -0.08162348
000250 93 7f df bd 70 fb f8 bb ea 84 61 3d a1 ad 5a bc
       -0.10913005 -0.007598333 0.055058397 -0.01334706
000260 12 ac d9 3d 16 8c eb 3d f2 ff c0 bd 60 c2 04 3e
       0.10628523 0.11501329 -0.09423818 0.12964773
000270 42 a1 25 3e 3f d9 1d bc f1 0d 77 3d b1 6d e1 3d
       0.16174796 -0.009634315 0.06031603 0.1100725
000280 1c da 0a 3d dd a1 cd ba 15 38 4a 3b c1 3c 07 bd
       0.03389941 -0.0015688498 0.0030856181 -0.033016924
000290 00 05 a3 bd 01 f0 01 bd 55 ec fb 3c 34 33 8a bc
       -0.07959938 -0.031723026 0.03075234 -0.016870119
0002a0 14 9a 47 3c f6 37 b1 3d e8 65 eb 3c a7 3a 40 bd
       0.012182731 0.08653252 0.028735116 -0.046930935
0002b0 12 e5 04 bd 1f 7d 12 3d ec 29 ad 3d 75 be 2f 3d
       -0.03244502 0.035763856 0.084552616 0.042906243
0002c0 57 6c 2e bd 03 05 a7 3b 5a b8 39 3c 2e f4 a1 bd
       -0.04258379 0.005097033 0.011335457 -0.07907902
0002d0 06 ea 8a bb 99 ad b1 bc 73 d6 d7 bc 92 c1 f5 bc
       -0.0042393235 -0.021689223 -0.026347375 -0.029999528
0002e0 20 95 85 3c 7d 4d ae bc d5 67 e1 bc 2d 14 08 3d
       0.01630646 -0.021277184 -0.027515331 0.033222366
0002f0 39 b6 63 3c fd ea 40 bc 4d d0 08 3c c4 15 10 3d
       0.013898426 -0.011774776 0.008350444 0.035177007
000300 83 c3 07 bd 5a 32 e3 3c b6 9a d4 3c 81 0d 24 bd
       -0.03314544 0.02773397 0.025952678 -0.04005194
000310 55 33 d3 bc 7c 3b 26 3d 9b dd 6a 3c e1 c8 0d bd
       -0.025781313 0.040584072 0.014335061 -0.0346154
000320 01 a6 96 3d fc 7f 63 3d 4f 1f 77 bc f6 04 77 bb
       0.073558815 0.055541977 -0.015083148 -0.0037692166
000330 fc 82 41 bd 6f e7 5e 3b 85 d9 81 3d 3d b5 01 3d
       -0.047244057 0.0034012457 0.06340317 0.031666983
000340 3c 1a 79 bd 88 04 4f bd 06 54 3a 3b 33 75 b9 bd
       -0.060816035 -0.05054143 0.002843143 -0.09055557
000350 28 78 a4 38 8c 99 9e bd a6 37 34 bd 1e 97 16 bd
       7.84251e-05 -0.077441305 -0.043998383 -0.03676521
000360 2e a4 cd 39 77 e7 16 3d e8 c0 d8 3c 4b 91 d8 bd
       0.0003922297 0.036841836 0.026459172 -0.105745874
000370 09 67 0d bd d9 ce bb 3c 3c 15 12 3d a4 b3 25 bd
       -0.03452209 0.022925781 0.035664782 -0.04045452
000380 f8 53 b3 3c 7e 85 26 bc 7a 3a c9 bc 3e 1f 17 bc
       0.021890625 -0.010163663 -0.024564017 -0.009223757
000390 e2 a3 00 3d d9 f8 0c bd 4a 79 cb 3c f3 2a a5 3b
       0.03140629 -0.034417007 0.024838109 0.0050405203
0003a0 8c 6b 4b bc 8d a5 a6 bd b7 8e a1 3b ab ed 5b 3b
       -0.012415778 -0.08137045 0.004930343 0.003355841
0003b0 c8 b4 8f 3d 83 d7 89 bd 37 21 00 bd 1d 94 05 3b
       0.07016903 -0.06730559 -0.031281676 0.0020382472
0003c0 ba fb 08 bd 5d e7 a4 bd 2f fb f8 bc 94 0c e6 3b
       -0.03344319 -0.080519415 -0.030393211 0.0070205424
0003d0 40 ce 0a 3d 23 d2 dd bd b1 33 99 bd f4 06 b2 bc
       0.0338881 -0.10831096 -0.074805625 -0.021731831
0003e0 c7 c5 83 bd 1a 73 76 3d a1 34 80 3d 43 9d ca bd
       -0.064342074 0.060168363 0.06260038 -0.098932765
0003f0 a6 d4 f9 bd a1 78 af 3d 0b c1 3d 3c cb dd 64 bd
       -0.121987626 0.0856793 0.01158167 -0.05587558

weight f4 [532, 8]
000000 5c 1e 3f 3c 7a fa 22 ba c6 d2 e6 bc 4f 98 63 bc
       0.011664953 -0.00062171335 -0.028176676 -0.013891294
000010 28 d2 81 bd e1 ad 4d bd 35 62 59 3c fe a0 a6 bd
       -0.06338912 -0.050214652 0.013268043 -0.081361756
000020 78 36 9d 3d c3 e8 ba 3c 58 07 03 be 03 ba bc ba
       0.07676405 0.022816068 -0.1279577 -0.0014398698
000030 51 be 0f be 6e a5 69 bb dc 27 e6 3d 7f 14 18 3c
       -0.14037444 -0.0035651582 0.11238071 0.00928223
000040 b1 85 d4 bc fd d0 91 3d 7b 28 cc bc 32 52 ad 3d
       -0.025942655 0.071199395 -0.024921646 0.08462943
000050 c5 99 07 bd 8e 47 fd 3b 2a e6 b2 bc d7 48 41 3d
       -0.03310563 0.0077294772 -0.021838266 0.047188606
000060 d8 05 66 3d 89 2b 22 bd 87 82 39 bd 54 a8 34 3c
       0.056157917 -0.0395923 -0.045290496 0.011026461
000070 b4 e1 80 bd 3d ff 96 bd cc 0e 81 3d c5 3d 36 bd
       -0.062930495 -0.073729016 0.063016504 -0.0444925
000080 2b c5 32 bd d0 52 30 3d 59 4a 40 3d 30 fd 2e 3c
       -0.043645065 0.043047726 0.046945903 0.010680482
000090 df 3c 8b 3d 6b a9 88 3d ac 22 d8 bc 29 fd 95 3d
       0.067987196 0.06672939 -0.02638372 0.07323677
0000a0 44 15 9c 39 63 c7 75 3d 97 d8 89 bd 51 08 8f 3d
       0.00029770483 0.060004603 -0.06730764 0.06984008
0000b0 7f 93 3f bd 59 ed 65 3c b9 e0 c3 bc f7 9e 83 3c
       -0.046771523 0.014033639 -0.023910867 0.016067011
0000c0 3a 8a 52 3d 35 80 92 3d 11 a9 d6 bd fa 05 69 bd
       0.051401354 0.0715336 -0.104814656 -0.056890465
0000d0 79 6d ae bd 31 30 7e 3d fe df 19 bb 35 78 a3 bd
       -0.08516974 0.062057678 -0.0023479457 -0.07981912
0000e0 f4 f1 be bd 6f 97 96 3d b5 d6 d6 3c 19 84 3d 3b
       -0.09323493 0.073531024 0.026225427 0.0028917848
0000f0 aa 4e eb 3c 27 00 c3 3d bb e1 38 bd bf a3 71 3d
       0.028724033 0.095215134 -0.04513715 0.05899405
000100 1d 48 61 3a 8e cc 71 3c 68 2e 4b 3d 31 22 96 3b
       0.00085938146 0.014758242 0.049604803 0.0045817127
000110 5c c7 56 3c 2c 4e 07 bc 14 67 df bc 0c 0b 30 bd
       0.013109054 -0.008258384 -0.027270831 -0.042979285
000120 be b0 2b 3d 52 0e 14 3d 29 63 56 bc 95 e1 a1 bb
       0.0419166 0.03614647 -0.013085165 -0.0049402216
000130 22 79 8d 3c bf 8b 29 3c 1a 8b 47 bd 61 88 b6 bc
       0.017269675 0.0103482595 -0.048716642 -0.022281827
000140 03 4d 81 3d 4d 0d a2 bc b3 1b e4 bd d7 59 15 3d
       0.06313517 -0.019781733 -0.11138096 0.03646263
000150 11 26 7c 3d 97 41 89 bd f7 3b 9b 3d 64 ae 78 bd
       0.06155974 -0.067019634 0.07579797 -0.060713187
000160 ea 65 0f 3d 5c a9 58 bc 4e 6e 93 3c 54 ee 98 bb
       0.035009302 -0.013223972 0.017996933 -0.004667083
000170 4b b5 35 bd 4b f1 bb bb 6a 42 0d bd 06 36 06 3d
       -0.044362348 -0.0057355515 -0.034487166 0.032766365
000180 fb 81 44 3c b8 0d ba bc 20 37 aa 3b 3a d6 a1 bb
       0.01199388 -0.02271162 0.0051945597 -0.004938868
000190 78 85 7a ba a7 37 e7 bc 65 f3 b8 3c c6 95 cd bc
       -0.00095566316 -0.02822478 0.022576997 -0.025095832
0001a0 41 d2 28 ba dc c3 1b bd 22 5a 71 bb 36 ea b9 bc
       -0.00064400217 -0.038028583 -0.0036827405 -0.022694688
0001b0 42 5c 08 3c 67 32 1d bd a8 8b 4b 3c 3d 98 46 bd
       0.008322777 -0.038378146 0.012423433 -0.04848503
0001c0 c1 b8 45 ba 1f b4 30 3d 26 33 72 bd ba a8 5c ba
       -0.0007542484 0.043140527 -0.05913081 -0.0008417476
0001d0 d4 0f f6 3c f8 b7 8a ba e6 a5 03 bd 54 75 c7 ba
       0.030036844 -0.0010583391 -0.032140635 -0.0015217462
0001e0 4c eb 08 3c 04 b8 47 bd 9a 45 64 3c 8c 89 d5 bc
       0.00835688 -0.048759475 0.01393261 -0.026066564
0001f0 89 2b 3d 3d 53 49 35 bd c5 9a 1b bd 82 34 4b bb
       0.046184096 -0.04425938 -0.037989397 -0.003100664
000200 8e e9 41 3c cb 08 67 3d 78 1e 5d 3c 58 ff a8 3c
       0.011835469 0.05640487 0.013496034 0.02062957
000210 18 21 d2 3c 32 e0 18 3d 83 c2 34 bd 10 6e a3 3c
       0.025650546 0.037323184 -0.044130813 0.019949943
000220 f3 4c 85 b9 e5 0d 83 bc f0 b8 c7 3c 3e 24 48 bc
       -0.00025425068 -0.015997836 0.024380177 -0.012215672
000230 df cf ff 3c dc 5e aa bc 4e ae af bb a7 2f ee 3c
       0.03122705 -0.020797186 -0.005361355 0.029075457
000240 5e 6d 3d bb 96 a8 50 3d 33 56 61 bc 87 d1 77 3c
       -0.00289043 0.050942026 -0.013753462 0.015125639
000250 1a ff 9c bd e2 dd 09 3d 65 f7 b5 bc 12 72 3d 3c
       -0.07665844 0.03365887 -0.022212693 0.011562841
000260 e4 cf ea 3b a5 9c b6 3c 3a 65 05 bd 0a 06 e1 3d
       0.007165896 0.02229149 -0.03256724 0.1098748
000270 21 d1 f6 3d 20 a7 9d bd 38 a0 a3 3d 13 1a 19 bd
       0.12051607 -0.07697892 0.07989544 -0.037378382
000280 c2 16 7e 3b b6 46 6b bd c4 5e e7 3d 69 e3 78 bd
       0.003877089 -0.057440482 0.11297372 -0.06076375
000290 58 2d e4 3c e2 e0 fa bc cc ba ab bb 65 47 14 bc
       0.027853653 -0.03062481 -0.005240774 -0.009050225
0002a0 05 bf be 3c 35 dd fc bc 6f f0 72 bd 59 d2 e4 3c
       0.023284445 -0.030867198 -0.059311327 0.027932333
0002b0 fc 82 83 3d 6d 1a e0 bd 11 e5 c7 3d bb e5 fe bc
       0.06421468 -0.1094254 0.09760488 -0.031115403
0002c0 8d e8 2b 3d 82 24 a5 3c 49 5a e2 3c ed 03 9d 3c
       0.041969825 0.02015901 0.027630942 0.019166911
0002d0 ce a5 87 bc 43 b5 a6 3c 68 4e 24 bd 70 4e 84 3d
       -0.016558554 0.020350104 -0.040113837 0.06460273
0002e0 ca be 86 3d 14 ed 6e bd b4 bf 94 3a d9 5f 27 3d
       0.06579359 -0.058331564 0.0011348636 0.04086289
0002f0 d3 d0 02 bc 43 af 98 bd 06 e5 98 3d e5 d5 1d bd
       -0.007984358 -0.074553035 0.07465558 -0.038534064
000300 40 4e ac bc ed 38 c8 3c 66 9f 4b 3d 72 17 55 3c
       -0.021033406 0.024441207 0.04971256 0.013006078
000310 58 3f 02 bc 13 93 fd 3c ff 58 02 bd 72 f9 13 3d
       -0.007949673 0.03095392 -0.031823155 0.03612656
000320 82 e2 00 3d 57 7f 15 bd f3 98 58 3c 2d f7 c5 bd
       0.031466015 -0.036498394 0.01322006 -0.09666286
000330 04 64 21 bc 50 2c 84 3b 65 5c 84 bd 4e 70 37 bd
       -0.009850506 0.004033603 -0.06462935 -0.044784836
000340 ad 09 30 3c 19 5f cc bb af 71 0e 3e af ac fb bc
       0.010744494 -0.0062369225 0.13910554 -0.03072199
000350 c4 ce 77 3c e6 34 17 3d ee 7c d1 bd 0a aa a2 3d
       0.01512498 0.036915682 -0.102289066 0.079425886
000360 78 bd 32 bd 15 e7 f7 3c ba 51 3b 3d b4 90 90 3d
       -0.043637723 0.030261556 0.045732237 0.0705885
000370 37 e5 1a 3d 1b d0 1f 3d d2 0c 03 3c 0e aa 84 3d
       0.037816253 0.039016824 0.007998662 0.06477748
000380 41 2a 07 3d 07 4d 8a bc d9 cc cf 3b 24 5b aa 3d
       0.03299928 -0.016882433 0.0063415584 0.08318165
000390 7c f4 59 bc c4 ad 48 b8 f5 74 55 3c 19 06 71 3c
       -0.0133029185 -4.7845548e-05 0.013028373 0.014710926
0003a0 61 1d 58 3d d0 6d 3d bb e4 e7 97 bd 8a 21 c8 bc
       0.052762393 -0.0028904565 -0.074172765 -0.024430055
0003b0 12 7a 6d bd 1f 91 ba bc df d5 fc 3c 1d e7 41 bd
       -0.057977743 -0.022774277 0.0308637 -0.047339547
0003c0 f1 d4 8b 3d 4c 5b b5 3d 9e 7b cd 3b 75 b3 8b 3c
       0.06827725 0.08855304 0.00627084 0.017053345
0003d0 7d 66 f3 bc 7a 18 9d 3d e0 86 a4 bd 07 f1 d5 3c
       -0.029711956 0.07670684 -0.08033538 0.026115907
0003e0 b6 2d c6 3b 60 ea 4f 3d 6f 36 88 3c 8c a4 aa bc
       0.0060479296 0.050760627 0.016627518 -0.020830415
0003f0 20 dc 90 bd 75 bd 46 3d d7 03 e6 bd b4 e9 38 3c
       -0.070732355 0.048520524 -0.11231201 0.011286188

weight f4 [532, 8]
000000 56 15 4a bd 7f 81 8b bd 4f 37 03 3d df 56 ce 3c
       -0.049336754 -0.06811809 0.03203517 0.025187908
000010 9d ab 1f 3c 7d c1 f4 bc c8 a3 76 bc f5 4a 63 bd
       0.009745506 -0.029877419 -0.015053697 -0.055491406
000020 2c 04 89 bd 2a e5 5b 3d 49 be 8e bc 00 40 b1 bc
       -0.06690249 0.053685345 -0.01742472 -0.021636963
000030 cd a0 21 bd dd d9 c0 bb 90 ea a9 3c bc 12 00 bd
       -0.039459992 -0.0058853463 0.02074173 -0.031267866
000040 04 cf 5e bd da 14 9a 3c f3 c1 44 3d ec 77 96 3d
       -0.054396644 0.01880877 0.048036527 0.07347092
000050 b1 34 5e bc 75 8b 76 bd 70 37 80 3d 50 72 ff bd
       -0.013562367 -0.06019159 0.06260574 -0.12472975
000060 55 69 60 3d 1e 35 9f 3a 04 4a 0f 3c ab ca ab bb
       0.054787952 0.0012146567 0.008745674 -0.0052426658
000070 7a 18 ee bc b0 fb 06 3d 89 7d d8 bc e0 38 95 3c
       -0.029064406 0.03295487 -0.026427047 0.018215597
000080 47 14 2d 3d 21 49 6a bd 9a 2a a8 3d 1f 9b 0a 3e
       0.042255666 -0.057198647 0.082112506 0.13535737
000090 b5 3a c5 bd df 9d fb bc 66 75 2b bc fd e3 52 bd
       -0.09630338 -0.030714927 -0.010465002 -0.051486958
0000a0 0e 32 d4 bc 18 4d 43 3c cb e1 6d 3d 04 3a b1 3d
       -0.025902774 0.011920236 0.05807666 0.08653644
0000b0 3c ac 7c bd 31 58 95 bd 2e 01 cd 3b 0e 45 16 bc
       -0.061687693 -0.07292212 0.006256244 -0.009171737
0000c0 8c 42 a6 3c b7 4a 57 3d 61 af 48 3c 83 15 4b bd
       0.020295404 0.052561488 0.012248845 -0.049581062
0000d0 c9 e4 47 3b ea 22 d7 3c 87 6a 61 3d 50 7f 08 3d
       0.0030501357 0.026261766 0.055033233 0.03332454
0000e0 2b e4 ed 3c 78 46 e1 ba dd fc d5 bc 46 97 30 3d
       0.029039463 -0.0017187139 -0.026121551 0.043113016
0000f0 f7 0f 89 bd ec c8 27 3d c6 8a e9 3a b4 5e a9 3d
       -0.06692498 0.0409631 0.0017817847 0.08270016
000100 82 d1 0e 3d a4 1b 67 bd 94 d4 9c bb 5e 5b 8e 3c
       0.03486777 -0.056422845 -0.0047860835 0.017377552
000110 08 54 33 3b 1e d7 0f bd 90 5a ad bc 17 8e 2c 3d
       0.002736332 -0.03511726 -0.021161348 0.042127695
000120 e3 c8 78 bc a3 1a 9d 3c 60 67 f5 bb 40 ff 22 bd
       -0.015184614 0.01917774 -0.00748913 -0.039794207
000130 86 e5 02 bd 54 0a bf 3d af 49 e2 bd 19 5e 84 be
       -0.03195717 0.09328142 -0.1104921 -0.2585304
000140 a0 0d 2a 3c cc f0 7e bd 4f fb 31 3d e8 3c a8 3d
       0.010379225 -0.06224136 0.043452557 0.08214742
000150 17 cc 2d 3c 6b 85 72 bd cf eb 86 bd bc 3a 57 3d
       0.010607741 -0.05920927 -0.06587946 0.052546248
000160 02 86 7b bd 83 74 fe 3c 68 46 cf 3c c8 41 b3 3c
       -0.061407097 0.031061416 0.025302127 0.021881953
000170 ed a0 96 3c 6f 60 31 bd c6 b7 69 3d 09 09 f4 bd
       0.018387282 -0.043304857 0.057060026 -0.11915786
000180 c4 a7 a1 b8 e8 e1 4f 3c dc 16 95 3b 85 9a 1b 3c
       -7.708327e-05 0.012688138 0.004549844 0.00949729
000190 3c 82 aa bb 0c 03 b5 bb 02 58 8e 3b 64 dd d8 3c
       -0.0052035134 -0.005524045 0.0043439874 0.026472755
0001a0 43 43 4d 3b 4a 6c 94 3c a9 bf 0f 3d 2a 94 a0 3d
       0.0031320609 0.018118042 0.03509489 0.0784076
0001b0 98 3b 5f bd 09 4d e9 bc 02 91 da 3b f5 35 b3 3c
       -0.054500192 -0.028479116 0.0066701183 0.021876315
0001c0 de db 8f bd c4 5b a1 bd cb 1a e7 3c 23 eb 2e 3d
       -0.07024358 -0.07878831 0.028211018 0.042704713
0001d0 20 cc 8f 3d ce 7e 6b bd d0 18 b3 3b 91 a5 46 bd
       0.07021356 -0.057493977 0.0054656044 -0.04849774
0001e0 87 24 5d 3d ee a1 09 bd 15 77 ce 3b 96 11 ba bc
       0.053989913 -0.033601694 0.006300817 -0.022713464
0001f0 24 5a 4b 3c 4b 6b 14 3d 51 7c 7d bc 00 df a8 bc
       0.012411628 0.036235135 -0.015471534 -0.020614147
000200 07 8c be bd 0a 0a 9d bd 66 32 b0 3d 19 4d 9b 3d
       -0.09304052 -0.076679304 0.08603363 0.075830646
000210 95 88 cf 3c 3f b1 62 bd 86 0d f3 bc 92 51 8b bd
       0.025333682 -0.055344816 -0.029669534 -0.06802668
000220 a2 0d 2b 3c 30 4d 13 bc fe 21 36 3d 9c c8 a8 3d
       0.010440262 -0.008990571 0.04446601 0.08241388
000230 c7 d4 09 bd 11 dd 2e bd fc 03 21 3d 00 87 40 3b
       -0.033650186 -0.042691294 0.03931044 0.0029377341
000240 3a 9b d3 3b 3d e7 34 3d 2b 53 b0 bc 3c 55 66 bc
       0.0064577134 0.04416584 -0.021524033 -0.014058407
000250 ae 7d 8e bc 31 30 da 39 e2 c9 69 3d 81 d3 d5 bc
       -0.017393913 0.00041616106 0.057077296 -0.02610183
000260 f6 8a 39 3d 77 d0 f8 bd 75 10 a8 3b d7 05 10 3d
       0.04529854 -0.121491365 0.005128915 0.03516182
000270 52 f7 49 3b fa 31 36 bc 38 8e 6d 3c be 93 12 bd
       0.003081758 -0.011120314 0.01449924 -0.03578543
000280 d1 80 f6 bc 55 ee f3 bc a9 e7 11 3d dd 8b d6 bc
       -0.030090721 -0.029776732 0.03562132 -0.026189739
000290 c8 3e 21 3d 23 62 1a 3b 30 f9 e3 bd 0a aa 1c 3d
       0.039366513 0.002355703 -0.11131513 0.0382481
0002a0 33 b3 aa 3d 80 cd 9a bd 49 e2 47 bc b2 c9 99 3d
       0.08334961 -0.07558727 -0.012199947 0.075091735
0002b0 8c ca 75 3c 07 4d d0 3b 8d 75 7a bd d2 3d 9c bc
       0.015001904 0.0063568386 -0.06114726 -0.019072447
0002c0 6d fa 49 3d 09 4f 99 3d d7 26 8d bd 59 62 51 bd
       0.04931109 0.07485778 -0.06892174 -0.051119182
0002d0 56 bd f0 bc e7 17 71 3d c2 8a 9d 3d 07 9e 3f 3d
       -0.029387157 0.058860686 0.076924816 0.046781566
0002e0 21 04 06 bd d2 10 c4 3c c6 32 8e bc 32 da 24 bd
       -0.03271878 0.023933802 -0.017358195 -0.04024715
0002f0 4f 2d 0f 3d 83 ea 4a 3c 1a c6 89 3b d5 21 2c 3c
       0.03495532 0.0123850135 0.0042045237 0.010506113
000300 07 a0 f8 bc b6 e4 1a bc 26 63 ee 3c 80 9e 9a 3d
       -0.030349744 -0.009453943 0.029100012 0.07549763
000310 97 3d 9e bc 77 bb 74 bd e6 47 f2 3b be 82 3a bd
       -0.019316478 -0.059749093 0.007393825 -0.04553484
000320 d1 6f fe 3c 97 ca 1e bc e5 2c a5 bb 79 c0 8c 3d
       0.031059178 -0.009691856 -0.0050407522 0.06872649
000330 fb ca b6 bc 67 11 20 bc bf 84 42 bd d3 06 05 3e
       -0.022313586 -0.009769774 -0.047489878 0.12990884
000340 f8 95 4c 3c cb 5d 8e 3d ba 9f aa bd 40 f8 72 bd
       0.012486927 0.06951483 -0.08331247 -0.05931878
000350 bd 0a 86 bd 3d 6e 1e 3c a0 19 71 3d ce 5c 0e 3e
       -0.06545017 0.009669838 0.05886233 0.1390259
000360 82 90 56 3d 5f f7 7d 3d ba 6e 42 bd 1e 27 a7 bd
       0.052383907 0.06200349 -0.04746888 -0.08161758
000370 13 55 a7 bb 2a 53 df 3c 21 7d cf 3d 61 eb 6a 3a
       -0.005106577 0.027261335 0.10131288 0.0008961466
000380 1f ea e0 bc 1a 39 89 3b 9a 0d 21 bc ee 50 13 3c
       -0.027455388 0.0041877152 -0.009829903 0.008991463
000390 11 7d d5 bc 3f a9 31 3b e3 0a 55 3d 7c 7c 6b 3c
       -0.026060613 0.0027108935 0.052012336 0.014372941
0003a0 eb 57 59 bc 05 37 04 3c 34 6d 4f bc 66 00 c4 bc
       -0.01326559 0.008069758 -0.012660313 -0.023925971
0003b0 86 66 f0 bb bf db b5 3c 9c d6 9b 3b d2 ce 0a 3d
       -0.0073364405 0.02219951 0.004755808 0.033888645
0003c0 2e 77 78 3c 85 8a a8 3d 9a 57 9f bd 6f d4 a4 bd
       0.015165133 0.082295455 -0.077803805 -0.08048331
0003d0 39 9f d7 bb 07 c5 34 3d 97 1e 73 3d 92 ae 85 3c
       -0.00658026 0.044133212 0.059355345 0.016318593
0003e0 f7 fb 8d 3d 3c 53 c0 3c d9 b5 48 bb 8a e9 0f 3e
       0.06932824 0.02347719 -0.0030625968 0.14053932
0003f0 ba 5a 66 bd 9a af bd bc f4 d4 ee bc e5 ac 8f 3d
       -0.056238867 -0.023155022 -0.029154278 0.07015399

weight f4 [4, 8]
000000 9b aa 77 be 11 54 e5 bd 95 92 38 3b 53 20 f7 3a
       -0.24186175 -0.11197675 0.0028163542 0.0018854238
000010 90 9e 84 bd bf 39 1c be 80 c2 00 bc 49 42 e7 3a
       -0.06475556 -0.15256403 -0.007858872 0.0017643656
000020 aa 9a 9b 3d ce 49 fe 3c 34 d5 ac bb 20 55 2a bc
       0.07597859 0.031041052 -0.005274439 -0.010396272
000030 46 26 19 bd b8 b3 25 3d af e2 91 3b 78 7d 4d bc
       -0.037390016 0.040454596 0.0044520716 -0.012542121
000040 e5 d6 3c 3e 05 34 0e 3d 33 5d ba 3a 48 cb cb ba
       0.18441351 0.03471758 0.0014218449 -0.0015548253
000050 86 9e 4f 3e 1b 13 07 3d d9 4d ac 3b ae 64 85 bb
       0.20275316 0.032977205 0.0052583036 -0.00407084
000060 a0 66 ca 3b 9f 69 7c bc 99 18 b5 b9 54 e3 5b bb
       0.0061767846 -0.015406041 -0.00034541337 -0.0033552246
000070 e6 5c 09 3d 70 15 d8 bc 6b c9 21 3a af 2f a2 bb
       0.03353586 -0.02637741 0.0006171676 -0.004949532

weight f4 [757, 8]
000000 4c 7f 3e b5 bd 9a 79 37 af fc b4 39 36 89 6f b7
       -7.0965757e-07 1.4877584e-05 0.0003452054 -1.4277457e-05
000010 5b b5 34 ba e2 65 8e 3a 8e 24 01 b7 2b c5 f0 37
       -0.0006893479 0.0010864104 -7.69751e-06 2.8702043e-05
000020 6f a9 00 00 8d 97 00 00 16 8d 00 00 6d ac 00 00
       6.0781e-41 5.4366e-41 5.0612e-41 6.1855e-41
000030 b5 98 00 00 a0 8d 00 80 bf 88 00 80 e5 93 00 00
       5.4781e-41 -5.0805e-41 -4.9055e-41 5.3055e-41
000040 a8 45 cd 04 fb db 48 a3 5a fa 53 36 27 91 3f b1
       4.8259238e-36 -1.0888604e-17 3.1587174e-06 -2.7876668e-09
000050 d7 e1 9a b8 61 e8 48 39 13 b5 a8 87 66 3e 0e 2d
       -7.385358e-05 0.00019160054 -2.5384256e-34 8.085621e-12
000060 84 a9 07 bc 7e 5a ed b9 9e 1e 8c bc f6 8f ca ba
       -0.008280162 -0.00045271585 -0.017104443 -0.0015454281
000070 e7 f9 c8 3c bb 5c 1e bd 4b f1 60 3c 1c 62 fb bc
       0.024533225 -0.038662653 0.013729404 -0.03068643
000080 4b 4b a8 8b a1 7b 29 a9 72 1b 5d 34 b3 1b 25 a3
       -6.4824534e-32 -3.763277e-14 2.0592213e-07 -8.9505335e-18
000090 2e d1 93 37 82 2c 4f b7 c5 ee 11 00 ae 22 40 30
       1.7621172e-05 -1.2348524e-05 1.646858e-39 6.9898476e-10
0000a0 ac 7b 15 80 b2 cf ca 0e 50 47 0e ad b3 dc de 8c
       -1.97291e-39 4.9996848e-30 -8.0876e-12 -3.4337344e-31
0000b0 bd 9a 5f 31 0b cc b6 b1 87 04 39 00 5c ab f0 16
       3.253873e-09 -5.320094e-09 5.236247e-39 3.8882234e-25
0000c0 24 3c 8b bc aa 6a 45 bc 65 7d 88 3b 18 f8 8c bb
       -0.01699645 -0.0120493565 0.004165339 -0.004302036
0000d0 a0 c8 9d 39 7b b1 45 3b 76 f6 5c 3b fb cf 64 bc
       0.0003009485 0.00301656 0.0033716238 -0.013965602
0000e0 2b f9 29 80 30 53 9a 21 fc c1 bc 32 42 4d f2 9f
       -3.85464e-39 1.0457465e-18 2.1974294e-08 -1.026188e-19
0000f0 05 f6 5a b5 87 d7 e7 34 b8 0b 48 00 e2 31 86 29
       -8.1569334e-07 4.318392e-07 6.61636e-39 5.959449e-14
000100 2c a1 b0 92 aa 98 82 30 59 59 16 36 59 48 ef 28
       -1.1146893e-27 9.502135e-10 2.240375e-06 2.6565706e-14
000110 f1 9a b8 b7 1a cb 88 36 60 4d 19 80 bd 88 4e 2a
       -2.200666e-05 4.07676e-06 -2.323644e-39 1.8343916e-13
000120 dc ef 19 00 63 2a 73 25 01 02 c0 31 d7 27 2e a3
       2.381933e-39 2.1091251e-16 5.5881633e-09 -9.440995e-18
000130 1f 27 e6 b5 c4 4a 07 36 e8 7d 26 80 a9 6e b8 ae
       -1.7147721e-06 2.0160087e-06 -3.534916e-39 -8.3870084e-11
000140 d8 7f 42 13 3d 53 2f 0c 63 e5 10 30 e5 6d 19 2b
       2.4549274e-27 1.3506558e-31 5.2712873e-10 5.450903e-13
000150 80 34 05 b6 ef ba 56 b7 72 1f 96 02 38 50 8d ad
       -1.9849103e-06 -1.2798918e-05 2.2058568e-37 -1.6065468e-11
000160 4a 40 b8 83 fb 12 c2 a6 c1 10 e3 b4 78 2f 05 26
       -1.0829308e-36 -1.3466599e-15 -4.2294235e-07 4.6207977e-16
000170 b1 49 e2 35 e7 ee 3e b6 7c 7c 07 00 f4 c0 5b a9
       1.6859759e-06 -2.8451266e-06 6.87505e-40 -4.879513e-14
000180 4f af 4a 38 cf 9c 85 3a a6 88 56 3b 5f 3d dd 39
       4.8323822e-05 0.0010193827 0.0032735257 0.0004219813
000190 68 67 b9 bb f1 31 aa 3a d9 54 d4 b5 84 da 9b b8
       -0.005658079 0.0012984854 -1.5819925e-06 -7.431678e-05
0001a0 f1 fc 86 8a d3 3b 01 26 71 4b 5b 37 70 78 0f b2
       -1.2998877e-32 4.483694e-16 1.3070982e-05 -8.35108e-09
0001b0 25 8b cf b8 ad b2 f6 38 cc ab 5a 98 f4 ff cf af
       -9.896447e-05 0.00011763475 -2.8262575e-24 -3.7834946e-10
0001c0 7a 38 a1 97 82 ac 2b 32 90 58 f3 b7 22 db 05 30
       -1.0418638e-24 9.992734e-09 -2.9009097e-05 4.8696525e-10
0001d0 2b 00 84 38 b6 11 e6 b8 4c d7 36 8b c4 75 3e b3
       6.294282e-05 -0.000109705536 -3.5213896e-32 -4.434493e-08
0001e0 8c 55 cf b8 1b 79 b0 ba 79 63 93 bc b7 53 af 3b
       -9.8864635e-05 -0.0013463827 -0.017991768 0.0053505558
0001f0 94 c7 d9 3c 3e 1e 07 bd 71 4d 34 b8 df 96 ca b8
       0.026584424 -0.032987826 -4.2987467e-05 -9.6602125e-05
000200 7a 3c 68 3a 85 48 f9 3a 43 27 26 3b 3d b9 3e 39
       0.00088591094 0.0019018805 0.0025352992 0.00018188819
000210 b5 46 9b 3b bc f0 08 bc d0 3e 4f 37 bb ab b6 3a
       0.0047386535 -0.008358177 1.2352786e-05 0.0013936678
000220 59 dd 3d b9 05 cd 25 3b 95 3a 1b 3b 18 8d e7 b7
       -0.00018106903 0.0025299203 0.002368604 -2.7603048e-05
000230 ea 58 fd bb a1 5a c5 bb 2a 72 75 38 44 f5 15 ba
       -0.0077315466 -0.0060227667 5.8518875e-05 -0.00057204464
000240 54 65 01 af 72 24 0c b8 37 dd aa ba 67 1b 67 38
       -1.176848e-10 -3.3412543e-05 -0.0013035898 5.5100212e-05
000250 d5 bf 28 3b 20 66 48 bb 0c 85 a0 34 f6 ec 17 38
       0.0025749106 -0.003057845 2.9899127e-07 3.6221893e-05
000260 ff 8c 00 80 91 8d 00 80 36 89 00 00 bc 88 00 80
       -5.058e-41 -5.0784e-41 4.9222e-41 -4.9051e-41
000270 89 91 00 00 be 8d 00 00 8b ab 00 80 f6 95 00 00
       5.2208e-41 5.0848e-41 -6.1538e-41 5.3796e-41
000280 db 8c 8f a4 37 27 bd 32 48 66 00 3a e5 67 13 b7
       -6.225498e-17 2.2020329e-08 0.00048980536 -8.786073e-06
000290 07 45 1c bb 02 e0 f1 3a b0 b5 23 24 5c 9d 86 34
       -0.0023844854 0.00184536 3.5498886e-17 2.507394e-07
0002a0 4a 4d 65 00 b5 48 a7 00 17 cc 2c 00 b2 94 1e 80
       9.303111e-39 1.536261e-38 4.113975e-39 -2.808407e-39
0002b0 2b 3c 27 00 dd 07 02 80 82 1f 2b 00 86 17 4b 80
       3.603169e-39 -1.86492e-40 3.960229e-39 -6.896101e-39
0002c0 91 16 ab b4 bf 14 5b b7 4d d5 0d 3a 75 09 26 b9
       -3.186765e-07 -1.30582475e-05 0.00054105074 -0.00015834517
0002d0 7b 74 9f 3a 38 fe d1 39 6a f9 89 af be c7 07 3a
       0.0012165451 0.00040052994 -2.5097374e-10 0.0005179605
0002e0 3d 94 20 2a 2b dc 4d b2 c9 35 30 3a bf f1 50 b6
       1.4262285e-13 -1.1982631e-08 0.0006721882 -3.113513e-06
0002f0 a8 50 d7 ba 9d 80 b8 3a d6 dd de 99 60 e9 65 b4
       -0.0016427236 0.0014076416 -2.3043861e-23 -2.1412188e-07
000300 cb 57 b8 bd 24 d8 27 be 45 bf 5d bd cc 0f 4c bd
       -0.0900112 -0.16391045 -0.054137487 -0.049819753
000310 36 16 67 3e 75 c3 65 be 21 17 9a 3b b0 f8 30 bc
       0.22567067 -0.22437842 0.004702464 -0.010801479
000320 0b ab 45 bc 52 b9 92 bd a9 80 c3 3c 66 bf 14 3d
       -0.012064706 -0.07164253 0.02386506 0.036315344
000330 65 e3 3d ba df 3f 32 be 18 93 14 3a 53 4a e7 bd
       -0.0007243662 -0.17407177 0.00056676706 -0.11293473
000340 fc fe 95 a5 80 f3 0d 33 e8 1e 7c 39 57 7f 96 b6
       -2.6020164e-16 3.3050583e-08 0.00024044106 -4.4851727e-06
000350 e0 2f 6c ba 0f 08 e0 3a eb 36 b1 88 f0 a3 11 35
       -0.00090098195 0.0017092245 -1.0665711e-33 5.425527e-07
000360 c9 aa 28 83 e9 94 08 2a 31 0e 4f 37 c6 39 99 af
       -4.9566814e-37 1.213089e-13 1.2341466e-05 -2.7871588e-10
000370 da ef 88 b8 e0 6d 93 37 d9 16 ca 18 79 03 25 b0
       -6.529661e-05 1.757493e-05 5.2238846e-24 -6.0031585e-10
000380 f8 ec 1f 1e 69 95 9b 30 68 18 ed 38 9f 58 3c af
       8.466394e-21 1.1320199e-09 0.00011305587 -1.7129985e-10
000390 18 f6 6f b9 1c 14 57 38 c8 d0 93 8c f9 2c 86 33
       -0.00022884493 5.1278723e-05 -2.2774592e-31 6.248042e-08
0003a0 0b d2 f6 97 b5 c2 08 35 e4 18 c2 3a 1d 35 f9 b4
       -1.59504e-24 5.0947284e-07 0.0014808443 -4.641851e-07
0003b0 8a 29 1d bb 86 9a c1 39 b6 d5 60 97 98 db bd 31
       -0.0023981058 0.00036926958 -7.2648045e-25 5.525589e-09
0003c0 57 70 44 37 d4 db 89 3a 24 66 50 bc e6 db 25 bb
       1.17086665e-05 0.0010517784 -0.012719665 -0.0025308072
0003d0 a3 80 90 39 84 a8 ac 3c d6 6f e4 38 ff fa 2d 3b
       0.00027561662 0.021076448 0.00010892718 0.002654731
0003e0 a8 d8 1a 3b 6c ef 15 3d e0 0b f8 bc 1a c3 fb 3c
       0.0023627672 0.036605284 -0.0302791 0.03073268
0003f0 0f ba 0f 3e b4 ad c8 bd 36 e3 5f bb e2 0c c2 3d
       0.1403582 -0.09798756 -0.0034162528 0.094751135

weight f4 [4, 8]
000000 af 3c 8b bc 47 46 a6 3c ad 06 a8 bc 89 10 d7 3b
       -0.01699671 0.020297183 -0.020510996 0.0065632504
000010 23 9c 62 be ba c0 92 3c e0 e5 5c bc 3e 08 9e bb
       -0.22129874 0.017914165 -0.013482541 -0.00482276
000020 21 0c 03 3d 65 75 f9 3c b5 8a 4b bb 67 68 2d 3c
       0.03199399 0.030451486 -0.0031058018 0.0105839735
000030 be 74 85 be ba 00 ff ba 50 6c ff 37 96 d9 bb ba
       -0.2606563 -0.0019455173 3.0448806e-05 -0.0014331813
000040 aa 80 66 bd 12 a8 05 bc a4 a9 4f 3b 42 be 8d bc
       -0.056275047 -0.008157747 0.0031686807 -0.017302636
000050 0e 5c 2d 3e 90 61 e7 bb 5e 8b 05 3c a6 9c 44 bc
       0.16929647 -0.007061191 0.0081509035 -0.0120002385
000060 80 6e 61 bc 6d 9a 68 3c 15 59 df bb 00 48 59 b8
       -0.013759255 0.014196974 -0.0068160393 -5.1803887e-05
000070 0c 71 d5 bd 1b 96 42 3b cb 9c e7 ba fb 67 c7 bb
       -0.104219526 0.002969152 -0.0017670629 -0.0060853935

weight f4 [3, 8]
000000 f3 1a b5 bc 80 78 15 bc 4b 56 05 3c f1 4d 38 bd
       -0.022107577 -0.009122968 0.00813825 -0.044996206
000010 63 e5 a2 3d ee eb ee bc a0 6c 36 ba 2e 57 56 bb
       0.07953908 -0.029165234 -0.00069589354 -0.0032705772
000020 a9 d1 4b bb 43 b9 11 3b a6 5c 9a bb 2a b7 3f 3d
       -0.003110031 0.0022235669 -0.0047107516 0.04680554
000030 54 90 da 3c 3e cd 85 3c 94 a4 b4 3a db 35 70 bb
       0.02668015 0.016333219 0.0013781958 -0.0036653194
000040 28 95 4e bc 5e 14 62 bb e0 9f e0 3a 20 27 6d 3a
       -0.012608804 -0.0034497003 0.001713749 0.00090466626
000050 78 89 59 3d 60 3d d2 bb 88 dc b2 39 84 46 63 bb
       0.053109616 -0.006416008 0.00034115114 -0.0034679482

weight f4 [3, 8]
000000 95 4b 99 bd 1f e6 0d bd cf 48 95 bb 96 b6 b6 bc
       -0.07485119 -0.03464329 -0.0045557986 -0.02230386
000010 9d ca 1d 3e 38 b3 4b bd 05 20 d5 bb 46 32 9c bc
       0.15409322 -0.049731463 -0.006504061 -0.019066941
000020 7c af 64 bd ef c2 35 bd 12 33 9d bc 3c 0b 99 bc
       -0.055831417 -0.044375356 -0.019189391 -0.018682115
000030 2e 3d 08 bc cb 81 46 bd cb fc c4 bb ec ff 8c bc
       -0.008315368 -0.048463624 -0.0060115806 -0.017211877
000040 aa d1 85 bd 87 d4 21 bd 46 85 42 bc e9 e0 a7 bc
       -0.06534131 -0.039509322 -0.011872595 -0.020492988
000050 ca 46 95 3d 82 1a 49 bd 68 0e cd bb 19 99 94 bc
       0.072888926 -0.049097545 -0.006257821 -0.018139409

weight f4 [3, 8]
000000 de 19 b4 bd 66 98 d1 bc b9 18 d2 3b cd 98 9f bc
       -0.08793996 -0.025585365 0.0064116386 -0.01948204
000010 71 4d 05 3e 55 a1 08 bd 26 25 08 bc 61 b8 29 bc
       0.13017823 -0.033356983 -0.008309638 -0.010358901
000020 4c 02 03 3d 06 17 33 3d 63 42 05 bc 95 d1 82 bc
       0.031984612 0.04372313 -0.008133504 -0.015969077
000030 72 a1 ab bd 45 7f 4a 3d 8c 02 98 3b 23 41 3c bc
       -0.083804026 0.04943778 0.0046389755 -0.011490139
000040 70 31 e5 bc a6 95 14 3c 34 b0 61 ba 31 35 91 bc
       -0.027977675 0.009068882 -0.0008609325 -0.017725559
000050 e0 f2 bd 3c e0 bb 03 3c 80 8f f0 ba c2 fc 32 bc
       0.0231871 0.008040398 -0.0018353313 -0.01092452

weight f4 [3, 8]
000000 80 09 02 bd dd ae c3 bd c9 12 35 bd b7 aa f1 3a
       -0.03174734 -0.09554837 -0.044207368 0.0018437718
000010 72 23 de 3d e5 75 7e bc ea d1 be bb 27 bc 42 bc
       0.108466044 -0.015531038 -0.0058233636 -0.011885679
000020 f1 14 ac bb d1 05 ac 3d f9 52 52 3d a1 4c 4a bc
       -0.00525152 0.08399547 0.05134866 -0.012347371
000030 4f 71 e1 bc 2e 80 9e bc b6 1d ae 3b 87 a3 a6 ba
       -0.02751985 -0.01934823 0.0053136004 -0.001271353
000040 1e 8c 97 bc 60 48 bd bb 80 01 6a 3b 4a 17 ac bb
       -0.01849943 -0.00577645 0.003570646 -0.0052517997
000050 1e c7 25 3d 90 dd 8e bc a0 a1 85 b9 98 90 d7 bb
       0.040473096 -0.017439634 -0.00025488157 -0.006578516

weight f4 [3, 8]
000000 6f 08 5b bd 16 68 ac bb 9e 46 c6 bb d7 af b3 bc
       -0.05347484 -0.0052614314 -0.0060508987 -0.021934433
000010 70 4d 1e 3e 0d 1a 9f bc 73 5b 0f 3b 88 79 91 bc
       0.15459228 -0.019421602 0.0021874576 -0.017758146
000020 6d b3 97 bd f9 dc 70 bc 1e 04 04 bc d9 0c 06 bb
       -0.074072696 -0.0147011215 -0.008057622 -0.0020454435
000030 97 fc 01 be c9 53 27 bd 59 4b 4f 3b 75 07 b5 bc
       -0.12694012 -0.040851388 0.0031630604 -0.022098282
000040 d2 9b 82 bd 82 88 23 bc 6d 27 e7 bb 72 71 44 bc
       -0.063773766 -0.0099812765 -0.0070542605 -0.011989938
000050 c8 86 62 3c d0 e0 f6 bc 66 53 2f 3b 7e 40 a3 bc
       0.01382608 -0.030136496 0.002675259 -0.019928213

weight f4 [3, 8]
000000 39 2a 99 bd 3f 8e a9 bc 8e a1 6d bb e9 c6 6e bc
       -0.074787565 -0.020697711 -0.0036259624 -0.014573791
000010 9f 91 20 3e 3d 24 0c bd b5 0d 89 ba bf 57 a9 bc
       0.1568055 -0.034214247 -0.0010456356 -0.020671723
000020 1d d3 4a bd ce ff 8d bc 22 52 80 ba cd 7c 92 bb
       -0.04951774 -0.017333891 -0.0009790102 -0.004470444
000030 3e 58 85 bd 75 e4 a9 bc b5 dc 3b 3c fa 23 29 bb
       -0.065109715 -0.02073882 0.011466195 -0.0025808797
000040 c8 93 7e bd 06 c7 9b bc 50 e5 16 bb a8 02 1c bc
       -0.062152654 -0.0190158 -0.0023024864 -0.009522118
000050 00 cb 3b 3d 78 16 e1 bc fe ba aa 3b 3e 7c 3e bc
       0.045847893 -0.027476534 0.0052102795 -0.011626301

weight f4 [3, 8]
000000 c1 ba a5 bd f4 31 4b bd ac b7 25 bc fb 68 b7 bc
       -0.08092261 -0.049608186 -0.010114592 -0.022388926
000010 5b cc 1f 3e f7 6a 87 bd 72 ba 2f bc c7 0a 9e bc
       0.15605299 -0.06612199 -0.010725604 -0.019292248
000020 fe a7 62 bc 2c 72 17 bc 28 c1 0c bc 85 95 20 bc
       -0.013833998 -0.009243529 -0.008590974 -0.009801273
000030 d0 82 c6 bb b4 9a b9 bb 9b f8 23 bc 8b 95 46 bc
       -0.0060580745 -0.005664194 -0.010008003 -0.012120615
000040 c1 0f 42 bd 7f 0e f1 bc 6a 3c 19 bc df d9 83 bc
       -0.047378305 -0.029425858 -0.009352783 -0.0160951
000050 44 98 99 3d a2 04 13 bd 86 d9 29 bc c6 aa 80 bc
       0.074997455 -0.03589309 -0.010366803 -0.015706431

weight f4 [3, 8]
000000 16 01 93 bd a3 69 f3 bc 8c 63 f6 bb b4 76 81 bc
       -0.071779415 -0.029713457 -0.007519191 -0.015803672
000010 c6 77 38 3e 74 7c 55 bd 3c a1 2f bc 8a 43 94 bc
       0.1801444 -0.05212064 -0.010719594 -0.018098611
000020 fc 56 92 bd dc 3e 06 bd 78 7b 8d bb c6 6f fd bc
       -0.07145497 -0.03277479 -0.004317697 -0.030937087
000030 53 ab 86 bc e8 54 70 bd 9e bc d6 36 f4 d6 6a bc
       -0.016439116 -0.058674723 6.399655e-06 -0.014333475
000040 09 ac 92 bd ae f3 ff bc 82 ef c1 bb 3d 73 bf bc
       -0.07161719 -0.031244125 -0.005918444 -0.02337038
000050 5c a2 a7 3d ae e8 62 bd 64 86 af bb 82 d7 84 bc
       0.081852645 -0.055397682 -0.005356597 -0.016216043

weight f4 [3, 8]
000000 ca 6a a2 bd a8 07 c3 bc 3a 80 02 bc e5 09 bb bc
       -0.07930525 -0.023807362 -0.007965142 -0.022831867
000010 50 9b 19 3e 2f 48 4b bd 06 79 ca bb 41 d2 97 bc
       0.15000653 -0.049629387 -0.006178978 -0.018532874
000020 e4 45 2d bd 32 a6 cb bc 53 7d 46 3b 6b 8c 80 bc
       -0.04230298 -0.024859522 0.0030287101 -0.015691957
000030 8a f5 1a 3d c8 19 04 bd e5 fa cb bb 13 27 db bc
       0.03783182 -0.03225115 -0.0062249773 -0.02675203
000040 bc 0d 79 bd ed 56 c7 bc ca c1 21 bb 28 cb 9d bc
       -0.060804114 -0.024333442 -0.0024682158 -0.019261912
000050 b2 58 c0 3d fc b0 27 bd f6 39 cb bb aa 7c b9 bc
       0.09391917 -0.04094027 -0.006201978 -0.022642452

weight f4 [3, 8]
000000 e9 bb a0 bd a7 28 60 bd 29 ae 41 bc c0 60 a7 bc
       -0.07848341 -0.05472627 -0.011821308 -0.020431876
000010 6a 18 6b 3e a5 c3 85 bd 2b 03 36 bc c4 0d 8c bc
       0.22958532 -0.06531457 -0.011109154 -0.017096408
000020 a3 64 66 bd f7 a5 46 bd a4 47 18 bd ae 0c a2 bc
       -0.05624832 -0.04849812 -0.037177697 -0.019781437
000030 6f 6b 64 3d a3 fd 3e bd 27 f0 e9 3b 94 b4 f9 bc
       0.05576652 -0.046628606 0.007139224 -0.030481614
000040 1d f7 89 bd 4f 67 53 bd 2e b3 c8 bc b7 b6 a4 bc
       -0.06736586 -0.051612195 -0.024499502 -0.020106656
000050 a3 19 12 3e 76 42 65 bd 2f 16 02 bb 2c e1 c2 bc
       0.14267592 -0.055971585 -0.0019849648 -0.023789011

weight f4 [3, 8]
000000 6e c9 62 bd c7 67 2f 3c fb 16 08 bd aa 62 39 3b
       -0.05536788 0.010705895 -0.03322504 0.0028287568
000010 b2 1a b8 3c 18 2d 39 bd bd 27 c9 3c 9e a7 02 3d
       0.022473667 -0.04520902 0.024555082 0.031898133
000020 21 13 c6 bd d5 0e 57 bd a5 e5 81 3d 32 70 50 bd
       -0.09671617 -0.05250438 0.06342629 -0.050888248
000030 c8 3b 06 3e a2 19 f9 3a c0 d6 8c bc 49 90 8c bd
       0.13108742 0.0019004832 -0.017192245 -0.06863458
000040 ec bb 9b bd e3 34 ab bc 9e 68 77 3c 07 da c4 bc
       -0.07604203 -0.020899242 0.015100626 -0.024029745
000050 1e 3f 9d 3d 4b 64 b1 bc f4 43 71 3b f4 78 96 bc
       0.07678054 -0.021654269 0.0036814185 -0.018368222

weight f4 [3, 8]
000000 68 9f 7b bd 67 cc 42 bc a4 90 25 bc c8 ff 9e bc
       -0.06143132 -0.011889554 -0.010105286 -0.019409075
000010 8a 33 fc 3d 06 68 06 bd 25 9a 0f bc 76 30 85 bc
       0.12314518 -0.03281405 -0.008764778 -0.01625846
000020 a7 52 44 bd 49 92 33 bc 36 00 6b bb a6 12 04 bc
       -0.047930386 -0.01096017 -0.003585828 -0.008061087
000030 0a e3 5a 3c 15 f5 1a bb e8 5b f1 3a 35 c3 92 bc
       0.013359794 -0.0023644615 0.0018414231 -0.017915348
000040 08 f9 5f bd 58 2f 3b bc b2 50 e0 bb 1b 09 61 bc
       -0.054680854 -0.011424862 -0.006845557 -0.013735081
000050 f6 c7 8b 3d 57 17 90 bc 50 dd 62 bb d6 f9 8b bc
       0.06825249 -0.017589254 -0.0034616776 -0.017086904

weight f4 [3, 8]
000000 2a 88 59 bd 0b 82 33 3b 7d 40 7d 3b 09 11 26 bc
       -0.05310837 0.0027390744 0.0038643174 -0.010135897
000010 ee 14 7d 3d a2 6a 8f bc 76 38 0d 3d e4 ff 72 bc
       0.06178754 -0.017506901 0.034477673 -0.014831517
000020 5d 7c da 3a e9 37 99 bd a8 2b 42 bd f9 af 14 39
       0.0016669143 -0.07481367 -0.047404915 0.00014179935
000030 85 bc 2c 3d 28 eb 21 bd 32 76 9c bd 60 81 b1 bc
       0.042171974 -0.039530903 -0.076397315 -0.021668136
000040 47 b4 d2 bc d9 9b 13 bd a0 57 b2 bc 49 be a3 bb
       -0.025720729 -0.0360373 -0.021770298 -0.004997049
000050 ba e8 54 3d 79 a0 e9 bc ee b3 ab bc a9 80 95 bc
       0.051979758 -0.028518902 -0.02095982 -0.018249827

weight f4 [2, 1]
000000 b5 53 e1 3e 74 df 35 be
       0.44009176 -0.17761022

weight f4 [8, 1]
000000 eb 31 12 be 20 e7 29 bc 59 8d 1a bd 9c 1b 74 bd
       -0.14276855 -0.010370046 -0.037732456 -0.059596643
000010 c9 aa 98 bd df 9a 64 bc 1c 18 5b bd aa 1a 02 80
       -0.0745445 -0.01395294 -0.05348979 -1.93236e-40

weight f4 [4, 1]
000000 88 71 67 be 3c e3 df bd fa 1a 5b bd 31 5b 01 80
       -0.22601902 -0.109320134 -0.053492524 -1.24549e-40

weight f4 [532, 1]
000000 3a 4a f1 bb c8 fe b4 bc dc 32 78 bc 9b 1b ed bb
       -0.007363585 -0.022094145 -0.015148845 -0.007235957
000010 4d 78 15 3d e1 aa 8a bc e9 4d e6 3c 4c df 08 bd
       0.03649168 -0.016927185 0.028113322 -0.033416077
000020 f2 f2 1d 3d 83 8d 69 3b c7 20 bb 3c 21 c5 cc bb
       0.03856177 0.0035637326 0.022842778 -0.0062490855
000030 c3 cc 86 3a 59 1c 85 2c ca 6f ad 3b ee c7 08 bd
       0.0010284412 3.7832346e-12 0.0052928673 -0.033393793
000040 9e 47 e8 3c 91 f2 bd 3c fb 54 21 bc d0 4b 49 b7
       0.028354462 0.023186954 -0.009846921 -1.1998185e-05
000050 11 c5 fb 3c de 72 0f bc de 51 d1 3c 8b 12 c1 bc
       0.030733617 -0.008755414 0.025551733 -0.023568412
000060 09 2f 8f 3c 54 95 20 bb 3b 35 31 3d 7e af 7a 3c
       0.017478483 -0.002450307 0.043263655 0.01530063
000070 0f 01 41 bd 5e c8 aa bc c1 9a 58 bc 92 8e d3 3b
       -0.04712015 -0.020847496 -0.01322049 0.0064562047
000080 4b 04 27 bc f4 05 98 3b 0c 59 c4 3c 2f 90 e7 bb
       -0.010193895 0.0046393815 0.023968242 -0.0070667486
000090 9c 16 a4 bc 92 1c 03 bd dd 77 c7 3b ed fe 08 bc
       -0.020030312 -0.03200967 0.006087287 -0.00836156
0000a0 a2 8a 00 bd 49 10 15 bb 71 ac 1d bc ad e8 fd bb
       -0.03138221 -0.0022745302 -0.009623633 -0.0077486844
0000b0 9d 3c 8f 38 3e f6 14 bb c5 cb a4 bb f0 48 5d 3a
       6.8300615e-05 -0.002272978 -0.005029174 0.00084413495
0000c0 c6 91 a7 3b a6 28 b2 bb 1e fd f2 3c 46 eb 0f bd
       0.005113813 -0.0054369746 0.029661711 -0.035136484
0000d0 d8 cc 49 bc ef ee 5e bd 45 bb a5 bc f6 5a 45 bc
       -0.012316905 -0.054427084 -0.020230899 -0.012045613
0000e0 df c9 b8 bc 96 cc 60 3a 02 d6 8f 3c ca 97 84 bc
       -0.022557197 0.00085754076 0.017558102 -0.01618566
0000f0 56 6e c7 bb 10 66 dc 3c 21 42 af ba d0 ab 82 3a
       -0.006086151 0.026904136 -0.0013371148 0.0009969417
000100 29 a7 cf bc aa 80 d6 39 de 32 c4 3b 3a e8 e5 3a
       -0.025348263 0.00040913123 0.005987509 0.0017540522
000110 77 8c 8b 3c 2f ee 93 bc 0c fe 0f 3d ec b8 9b 3c
       0.017034752 -0.01805791 0.035154387 0.019009076
000120 d0 bf 23 3d 71 3d ce bb 60 f7 1d bc 35 df f0 bb
       0.03997785 -0.0062939455 -0.009641498 -0.007350827
000130 c8 05 b1 3c a4 0e d0 bc 58 f7 36 bb 53 8a c5 bc
       0.021609202 -0.025397606 -0.0027918424 -0.02411381
000140 47 99 a7 bb 73 6d cd ba 5f c8 53 bb ef 5e 7b bc
       -0.0051147076 -0.0015672877 -0.0032315475 -0.015342458
000150 6d 63 0f bd d6 fc 51 bc f4 5d 5f bd a7 27 a5 bc
       -0.03500693 -0.012816628 -0.05453296 -0.02016051
000160 1f 4e 42 39 49 2c fc bc c8 de 5f bb 2b a9 47 ba
       0.00018530384 -0.030782836 -0.0034159888 -0.00076164556
000170 72 57 01 3d 0b c1 9b 3c f3 d8 87 bb f3 0a 10 bd
       0.031577535 0.019012948 -0.0041457354 -0.035166692
000180 ae 85 94 bc 9b 94 f3 3c 27 69 a1 bd a0 f1 77 b9
       -0.01813015 0.029733947 -0.07881384 -0.00023645768
000190 65 37 8f ba 19 9c 90 3c d1 cc 26 3d 9c 0d a4 bc
       -0.0010926543 0.017652558 0.040722672 -0.02002602
0001a0 35 9e 8a 3c 5e 4c 1f 3c fb f5 0b 3d ed cc 2d bc
       0.016921142 0.009722797 0.034170132 -0.01060794
0001b0 1f af 01 bd 19 02 1e 3c 12 a3 54 ba c1 e1 d3 3b
       -0.03166115 0.009644055 -0.00081114576 0.006466121
0001c0 cb 8c d8 ba 79 07 f0 ba 66 66 b7 3b 89 29 a3 bd
       -0.0016521452 -0.0018312774 0.0055969236 -0.079669066
0001d0 60 19 66 bb 54 44 36 ba 42 1a 12 bc b2 68 f2 bc
       -0.003511034 -0.00069529307 -0.008917393 -0.029590938
0001e0 ff 8f 23 bd 3e 91 3f bc 93 6e 60 b6 fe 45 a1 36
       -0.039932247 -0.011692343 -3.3442964e-06 4.806322e-06
0001f0 d4 02 a7 bc 7f 1d c2 3b 76 37 f4 bc c1 31 21 3d
       -0.02038709 0.0059239264 -0.029811602 0.03935409
000200 02 d1 a2 3b 0b 34 51 3c 4b d1 e0 bc 25 76 53 3b
       0.0049687633 0.012768756 -0.027443549 0.0032266465
000210 f1 5a 07 bd 54 13 85 b9 0d af 7c bc da d5 ce 3b
       -0.033045713 -0.00025382137 -0.015422595 0.006312114
000220 91 a0 95 3c 66 cc b6 3b 55 bb a9 bc 17 08 bd 38
       0.01826504 0.0055785654 -0.02071921 9.013729e-05
000230 af bd a0 3c c4 34 17 bb 2d 89 09 bd 3c 19 4b 3a
       0.019621698 -0.0023072222 -0.033578087 0.00077475957
000240 af da 05 3c 35 e8 32 bb 38 69 31 3d 8b cf 71 3c
       0.008169814 -0.002729905 0.043313235 0.014758955
000250 62 4e 27 bc a4 e5 00 3c d2 c9 33 bb a1 7a 6c bc
       -0.010211559 0.007867251 -0.0027433527 -0.014433534
000260 70 6c d5 ba 14 ac 38 bd dc 11 6e ba 96 65 0f 3c
       -0.0016282927 -0.04508598 -0.0009081641 0.008752247
000270 30 33 02 bc 20 20 8d bb b8 76 05 bc b9 7c 9d bc
       -0.007946774 -0.004306808 -0.008145981 -0.019224511
000280 45 eb 0f 3b 1c e9 80 bc a2 f0 bc 3c 75 84 4b 32
       0.00219603 -0.015736155 0.023063961 1.1846272e-08
000290 df 10 c4 bc 69 c6 f6 ba 5e 7e 85 3c 89 b0 95 bc
       -0.023933826 -0.0018827441 0.016295608 -0.018272655
0002a0 97 6e 16 3c d3 38 14 bc 40 fc 44 bc a4 8f 84 bc
       0.00918164 -0.009046751 -0.012023032 -0.016181774
0002b0 49 a2 96 bc bd 08 ee bc 2e d3 97 bd 6d 65 80 3b
       -0.01838793 -0.029056901 -0.07413326 0.003918341
0002c0 60 97 d5 bc f9 88 b9 ba da 9f 74 3d 0e 14 45 bd
       -0.026073158 -0.0014155201 0.05972276 -0.04811483
0002d0 78 39 74 bb a9 55 24 bd 28 32 9e 3c 0b e5 f2 3b
       -0.00372657 -0.040120754 0.019311026 0.007412558
0002e0 f6 79 dc bb a9 e0 0f 3d 94 c3 e0 bc 64 0e 9d bb
       -0.006728406 0.035126362 -0.027437009 -0.0047929753
0002f0 7c 6d 75 39 78 5a c0 ba 1d 70 fc bb 68 d0 85 3c
       0.00023405807 -0.0014675399 -0.0077037946 0.016334727
000300 90 36 8b bc 19 32 bb bc b5 87 81 bc 35 b8 4d bc
       -0.01699379 -0.022851037 -0.01581178 -0.012556125
000310 b5 d2 12 b9 97 c8 8e bc e2 5d 84 3c cc 91 4b bb
       -0.0001400214 -0.017429633 0.016158048 -0.0031062244
000320 d8 0a 52 3a 61 be 9c bb 84 43 86 3c 48 a7 8f 3b
       0.000801248 -0.004783437 0.016389616 0.004383955
000330 98 5b c3 bc d8 ca 30 bb 15 a4 49 3c 29 c7 f2 3c
       -0.023847386 -0.0026976373 0.012307187 0.029635983
000340 78 d3 3b 3c 5e 13 01 3d 4e c1 74 ba 81 7d cd 3c
       0.011463992 0.03151261 -0.0009336666 0.025084259
000350 ab 3f 08 bd 82 c2 33 bb 6b 68 14 bc a3 16 b0 bc
       -0.033263844 -0.0027429168 -0.009058098 -0.021495169
000360 14 62 ac bb c0 fe 68 bc bc 08 55 3a ec cb 89 bc
       -0.0052607153 -0.014220893 0.00081266067 -0.01682087
000370 5b 5f cb 3c c0 aa b0 3b a3 d3 0b 3c f3 76 23 3d
       0.024825742 0.0053914487 0.008534345 0.03990836
000380 9f 0c 05 bb 01 5f 9a 3c 38 b2 28 3d e9 4f ea bc
       -0.0020301712 0.01884413 0.041185588 -0.028602557
000390 c2 74 15 3d 6f 06 c7 3c ac 5d 43 bd 5c cf cb ba
       0.036488302 0.02429506 -0.047696754 -0.0015549469
0003a0 38 5f 87 3c 44 58 fc 3c a6 61 3b 3b b3 f1 19 bd
       0.016524896 0.030803807 0.0028592139 -0.037584018
0003b0 10 44 cd bc ec c5 02 3c 37 a5 8b ba 3c 8c a9 ba
       -0.025056869 0.007981759 -0.0010654096 -0.001293547
0003c0 55 a5 07 bc f7 61 08 bb 42 a6 88 3c e7 b6 92 3c
       -0.008279164 -0.0020810345 0.01668084 0.01790948
0003d0 8c 5f a0 bc 45 22 23 bd 9f 6c 92 3d 26 cb f1 b7
       -0.01957681 -0.039827604 0.07149624 -2.8824037e-05
0003e0 00 2f bc 39 29 e1 68 bc ad 33 45 bd 89 2e 80 3c
       0.00035893172 -0.014213839 -0.048144985 0.01564719
0003f0 a0 ab 14 bd 34 a3 3a bd 61 9b a3 bc f0 80 13 3c
       -0.036296487 -0.0455658 -0.019971551 0.009002909
